…
[38;5;15m    [39m[38;5;197mTYPE[39m[38;5;15m:[39m[38;5;15m [39m[38;5;186m"[39m[38;5;186mabsolute[39m[38;5;186m"[39m
[38;5;15m    [39m[38;5;197mSIZE[39m[38;5;15m:[39m[38;5;15m [39m(640, 640)
[38;5;197mOUTPUT_DIR[39m[38;5;15m:[39m[38;5;15m [39m[38;5;186m"[39m[38;5;186m./relations_output_seg_w_5_new[39m[38;5;186m"[39m
[38;5;197mTEST[39m[38;5;15m:[39m
[38;5;15m  [39m[38;5;197mEVAL_PERIOD[39m[38;5;15m:[39m[38;5;15m [39m2000

[10/08 14:54:34] detectron2.utils.env INFO: Using a generated random seed 34916920
[10/08 14:54:35] detectron2.engine.defaults INFO: Model:
PanopticDeepLab(
  (backbone): ResNet(
    (stem): DeepLabStem(
      (conv1): Conv2d(
        3, 64, kernel_size=(3, 3), stride=(2, 2), padding=(1, 1), bias=False
        (norm): FrozenBatchNorm2d(num_features=64, eps=1e-05)
      )
      (conv2): Conv2d(
        64, 64, kernel_size=(3, 3), stride=(1, 1), padding=(1, 1), bias=False
        (norm): FrozenBatchNorm2d(num_features=64, eps=1e-05)
      )
      (conv3): Conv2d(
        64, 128, kernel_size=(3, 3), stride=(1, 1), padding=(1, 1), bias=False
        (norm): FrozenBatchNorm2d(num_features=128, eps=1e-05)
      )
    )
    (res2): Sequential(
      (0): BottleneckBlock(
        (shortcut): Conv2d(
          128, 256, kernel_size=(1, 1), stride=(1, 1), bias=False
          (norm): FrozenBatchNorm2d(num_features=256, eps=1e-05)
        )
        (conv1): Conv2d(
          128, 64, kernel_size=(1, 1), stride=(1, 1), bias=False
          (norm): FrozenBatchNorm2d(num_features=64, eps=1e-05)
        )
        (conv2): Conv2d(
          64, 64, kernel_size=(3, 3), stride=(1, 1), padding=(1, 1), bias=False
          (norm): FrozenBatchNorm2d(num_features=64, eps=1e-05)
        )
        (conv3): Conv2d(
          64, 256, kernel_size=(1, 1), stride=(1, 1), bias=False
          (norm): FrozenBatchNorm2d(num_features=256, eps=1e-05)
        )
      )
      (1): BottleneckBlock(
        (conv1): Conv2d(
          256, 64, kernel_size=(1, 1), stride=(1, 1), bias=False
          (norm): FrozenBatchNorm2d(num_features=64, eps=1e-05)
        )
        (conv2): Conv2d(
          64, 64, kernel_size=(3, 3), stride=(1, 1), padding=(1, 1), bias=False
          (norm): FrozenBatchNorm2d(num_features=64, eps=1e-05)
        )
        (conv3): Conv2d(
          64, 256, kernel_size=(1, 1), stride=(1, 1), bias=False
          (norm): FrozenBatchNorm2d(num_features=256, eps=1e-05)
        )
      )
      (2): BottleneckBlock(
        (conv1): Conv2d(
          256, 64, kernel_size=(1, 1), stride=(1, 1), bias=False
          (norm): FrozenBatchNorm2d(num_features=64, eps=1e-05)
        )
        (conv2): Conv2d(
          64, 64, kernel_size=(3, 3), stride=(1, 1), padding=(1, 1), bias=False
          (norm): FrozenBatchNorm2d(num_features=64, eps=1e-05)
        )
        (conv3): Conv2d(
          64, 256, kernel_size=(1, 1), stride=(1, 1), bias=False
          (norm): FrozenBatchNorm2d(num_features=256, eps=1e-05)
        )
      )
    )
    (res3): Sequential(
      (0): BottleneckBlock(
        (shortcut): Conv2d(
          256, 512, kernel_size=(1, 1), stride=(2, 2), bias=False
          (norm): FrozenBatchNorm2d(num_features=512, eps=1e-05)
        )
        (conv1): Conv2d(
          256, 128, kernel_size=(1, 1), stride=(1, 1), bias=False
          (norm): FrozenBatchNorm2d(num_features=128, eps=1e-05)
        )
        (conv2): Conv2d(
          128, 128, kernel_size=(3, 3), stride=(2, 2), padding=(1, 1), bias=False
          (norm): FrozenBatchNorm2d(num_features=128, eps=1e-05)
        )
        (conv3): Conv2d(
          128, 512, kernel_size=(1, 1), stride=(1, 1), bias=False
          (norm): FrozenBatchNorm2d(num_features=512, eps=1e-05)
        )
      )
      (1): BottleneckBlock(
        (conv1): Conv2d(
          512, 128, kernel_size=(1, 1), stride=(1, 1), bias=False
          (norm): FrozenBatchNorm2d(num_features=128, eps=1e-05)
        )
        (conv2): Conv2d(
          128, 128, kernel_size=(3, 3), stride=(1, 1), padding=(1, 1), bias=False
          (norm): FrozenBatchNorm2d(num_features=128, eps=1e-05)
        )
        (conv3): Conv2d(
          128, 512, kernel_size=(1, 1), stride=(1, 1), bias=False
          (norm): FrozenBatchNorm2d(num_features=512, eps=1e-05)
        )
      )
      (2): BottleneckBlock(
        (conv1): Conv2d(
          512, 128, kernel_size=(1, 1), stride=(1, 1), bias=False
          (norm): FrozenBatchNorm2d(num_features=128, eps=1e-05)
        )
        (conv2): Conv2d(
          128, 128, kernel_size=(3, 3), stride=(1, 1), padding=(1, 1), bias=False
          (norm): FrozenBatchNorm2d(num_features=128, eps=1e-05)
        )
        (conv3): Conv2d(
          128, 512, kernel_size=(1, 1), stride=(1, 1), bias=False
          (norm): FrozenBatchNorm2d(num_features=512, eps=1e-05)
        )
      )
      (3): BottleneckBlock(
        (conv1): Conv2d(
          512, 128, kernel_size=(1, 1), stride=(1, 1), bias=False
          (norm): FrozenBatchNorm2d(num_features=128, eps=1e-05)
        )
        (conv2): Conv2d(
          128, 128, kernel_size=(3, 3), stride=(1, 1), padding=(1, 1), bias=False
          (norm): FrozenBatchNorm2d(num_features=128, eps=1e-05)
        )
        (conv3): Conv2d(
          128, 512, kernel_size=(1, 1), stride=(1, 1), bias=False
          (norm): FrozenBatchNorm2d(num_features=512, eps=1e-05)
        )
      )
    )
    (res4): Sequential(
      (0): BottleneckBlock(
        (shortcut): Conv2d(
          512, 1024, kernel_size=(1, 1), stride=(2, 2), bias=False
          (norm): FrozenBatchNorm2d(num_features=1024, eps=1e-05)
        )
        (conv1): Conv2d(
          512, 256, kernel_size=(1, 1), stride=(1, 1), bias=False
          (norm): FrozenBatchNorm2d(num_features=256, eps=1e-05)
        )
        (conv2): Conv2d(
          256, 256, kernel_size=(3, 3), stride=(2, 2), padding=(1, 1), bias=False
          (norm): FrozenBatchNorm2d(num_features=256, eps=1e-05)
        )
        (conv3): Conv2d(
          256, 1024, kernel_size=(1, 1), stride=(1, 1), bias=False
          (norm): FrozenBatchNorm2d(num_features=1024, eps=1e-05)
        )
      )
      (1): BottleneckBlock(
        (conv1): Conv2d(
          1024, 256, kernel_size=(1, 1), stride=(1, 1), bias=False
          (norm): FrozenBatchNorm2d(num_features=256, eps=1e-05)
        )
        (conv2): Conv2d(
          256, 256, kernel_size=(3, 3), stride=(1, 1), padding=(1, 1), bias=False
          (norm): FrozenBatchNorm2d(num_features=256, eps=1e-05)
        )
        (conv3): Conv2d(
          256, 1024, kernel_size=(1, 1), stride=(1, 1), bias=False
          (norm): FrozenBatchNorm2d(num_features=1024, eps=1e-05)
        )
      )
      (2): BottleneckBlock(
        (conv1): Conv2d(
          1024, 256, kernel_size=(1, 1), stride=(1, 1), bias=False
          (norm): FrozenBatchNorm2d(num_features=256, eps=1e-05)
        )
        (conv2): Conv2d(
          256, 256, kernel_size=(3, 3), stride=(1, 1), padding=(1, 1), bias=False
          (norm): FrozenBatchNorm2d(num_features=256, eps=1e-05)
        )
        (conv3): Conv2d(
          256, 1024, kernel_size=(1, 1), stride=(1, 1), bias=False
          (norm): FrozenBatchNorm2d(num_features=1024, eps=1e-05)
        )
      )
      (3): BottleneckBlock(
        (conv1): Conv2d(
          1024, 256, kernel_size=(1, 1), stride=(1, 1), bias=False
          (norm): FrozenBatchNorm2d(num_features=256, eps=1e-05)
        )
        (conv2): Conv2d(
          256, 256, kernel_size=(3, 3), stride=(1, 1), padding=(1, 1), bias=False
          (norm): FrozenBatchNorm2d(num_features=256, eps=1e-05)
        )
        (conv3): Conv2d(
          256, 1024, kernel_size=(1, 1), stride=(1, 1), bias=False
          (norm): FrozenBatchNorm2d(num_features=1024, eps=1e-05)
        )
      )
      (4): BottleneckBlock(
        (conv1): Conv2d(
          1024, 256, kernel_size=(1, 1), stride=(1, 1), bias=False
          (norm): FrozenBatchNorm2d(num_features=256, eps=1e-05)
        )
        (conv2): Conv2d(
          256, 256, kernel_size=(3, 3), stride=(1, 1), padding=(1, 1), bias=False
          (norm): FrozenBatchNorm2d(num_features=256, eps=1e-05)
        )
        (conv3): Conv2d(
          256, 1024, kernel_size=(1, 1), stride=(1, 1), bias=False
          (norm): FrozenBatchNorm2d(num_features=1024, eps=1e-05)
        )
      )
      (5): BottleneckBlock(
        (conv1): Conv2d(
          1024, 256, kernel_size=(1, 1), stride=(1, 1), bias=False
          (norm): FrozenBatchNorm2d(num_features=256, eps=1e-05)
        )
        (conv2): Conv2d(
          256, 256, kernel_size=(3, 3), stride=(1, 1), padding=(1, 1), bias=False
          (norm): FrozenBatchNorm2d(num_features=256, eps=1e-05)
        )
        (conv3): Conv2d(
          256, 1024, kernel_size=(1, 1), stride=(1, 1), bias=False
          (norm): FrozenBatchNorm2d(num_features=1024, eps=1e-05)
        )
      )
    )
    (res5): Sequential(
      (0): BottleneckBlock(
        (shortcut): Conv2d(
          1024, 2048, kernel_size=(1, 1), stride=(1, 1), bias=False
          (norm): FrozenBatchNorm2d(num_features=2048, eps=1e-05)
        )
        (conv1): Conv2d(
          1024, 512, kernel_size=(1, 1), stride=(1, 1), bias=False
          (norm): FrozenBatchNorm2d(num_features=512, eps=1e-05)
        )
        (conv2): Conv2d(
          512, 512, kernel_size=(3, 3), stride=(1, 1), padding=(2, 2), dilation=(2, 2), bias=False
          (norm): FrozenBatchNorm2d(num_features=512, eps=1e-05)
        )
        (conv3): Conv2d(
          512, 2048, kernel_size=(1, 1), stride=(1, 1), bias=False
          (norm): FrozenBatchNorm2d(num_features=2048, eps=1e-05)
        )
      )
      (1): BottleneckBlock(
        (conv1): Conv2d(
          2048, 512, kernel_size=(1, 1), stride=(1, 1), bias=False
          (norm): FrozenBatchNorm2d(num_features=512, eps=1e-05)
        )
        (conv2): Conv2d(
          512, 512, kernel_size=(3, 3), stride=(1, 1), padding=(4, 4), dilation=(4, 4), bias=False
          (norm): FrozenBatchNorm2d(num_features=512, eps=1e-05)
        )
        (conv3): Conv2d(
          512, 2048, kernel_size=(1, 1), stride=(1, 1), bias=False
          (norm): FrozenBatchNorm2d(num_features=2048, eps=1e-05)
        )
      )
      (2): BottleneckBlock(
        (conv1): Conv2d(
          2048, 512, kernel_size=(1, 1), stride=(1, 1), bias=False
          (norm): FrozenBatchNorm2d(num_features=512, eps=1e-05)
        )
        (conv2): Conv2d(
          512, 512, kernel_size=(3, 3), stride=(1, 1), padding=(8, 8), dilation=(8, 8), bias=False
          (norm): FrozenBatchNorm2d(num_features=512, eps=1e-05)
        )
        (conv3): Conv2d(
          512, 2048, kernel_size=(1, 1), stride=(1, 1), bias=False
          (norm): FrozenBatchNorm2d(num_features=2048, eps=1e-05)
        )
      )
    )
  )
  (sem_seg_head): PanopticDeepLabSemSegHead(
    (decoder): ModuleDict(
      (res2): ModuleDict(
        (project_conv): Conv2d(
          256, 32, kernel_size=(1, 1), stride=(1, 1), bias=False
          (norm): SyncBatchNorm(32, eps=1e-05, momentum=0.1, affine=True, track_running_stats=True)
        )
        (fuse_conv): DepthwiseSeparableConv2d(
          (depthwise): Conv2d(
            288, 288, kernel_size=(5, 5), stride=(1, 1), padding=(2, 2), groups=288, bias=False
            (norm): SyncBatchNorm(288, eps=1e-05, momentum=0.1, affine=True, track_running_stats=True)
          )
          (pointwise): Conv2d(
            288, 256, kernel_size=(1, 1), stride=(1, 1), bias=False
            (norm): SyncBatchNorm(256, eps=1e-05, momentum=0.1, affine=True, track_running_stats=True)
          )
        )
      )
      (res3): ModuleDict(
        (project_conv): Conv2d(
          512, 64, kernel_size=(1, 1), stride=(1, 1), bias=False
          (norm): SyncBatchNorm(64, eps=1e-05, momentum=0.1, affine=True, track_running_stats=True)
        )
        (fuse_conv): DepthwiseSeparableConv2d(
          (depthwise): Conv2d(
            320, 320, kernel_size=(5, 5), stride=(1, 1), padding=(2, 2), groups=320, bias=False
            (norm): SyncBatchNorm(320, eps=1e-05, momentum=0.1, affine=True, track_running_stats=True)
          )
          (pointwise): Conv2d(
            320, 256, kernel_size=(1, 1), stride=(1, 1), bias=False
            (norm): SyncBatchNorm(256, eps=1e-05, momentum=0.1, affine=True, track_running_stats=True)
          )
        )
      )
      (res5): ModuleDict(
        (project_conv): ASPP(
          (convs): ModuleList(
            (0): Conv2d(
              2048, 256, kernel_size=(1, 1), stride=(1, 1), bias=False
              (norm): SyncBatchNorm(256, eps=1e-05, momentum=0.1, affine=True, track_running_stats=True)
            )
            (1): DepthwiseSeparableConv2d(
              (depthwise): Conv2d(
                2048, 2048, kernel_size=(3, 3), stride=(1, 1), padding=(6, 6), dilation=(6, 6), groups=2048, bias=False
                (norm): SyncBatchNorm(2048, eps=1e-05, momentum=0.1, affine=True, track_running_stats=True)
              )
              (pointwise): Conv2d(
                2048, 256, kernel_size=(1, 1), stride=(1, 1), bias=False
                (norm): SyncBatchNorm(256, eps=1e-05, momentum=0.1, affine=True, track_running_stats=True)
              )
            )
            (2): DepthwiseSeparableConv2d(
              (depthwise): Conv2d(
                2048, 2048, kernel_size=(3, 3), stride=(1, 1), padding=(12, 12), dilation=(12, 12), groups=2048, bias=False
                (norm): SyncBatchNorm(2048, eps=1e-05, momentum=0.1, affine=True, track_running_stats=True)
              )
              (pointwise): Conv2d(
                2048, 256, kernel_size=(1, 1), stride=(1, 1), bias=False
                (norm): SyncBatchNorm(256, eps=1e-05, momentum=0.1, affine=True, track_running_stats=True)
              )
            )
            (3): DepthwiseSeparableConv2d(
              (depthwise): Conv2d(
                2048, 2048, kernel_size=(3, 3), stride=(1, 1), padding=(18, 18), dilation=(18, 18), groups=2048, bias=False
                (norm): SyncBatchNorm(2048, eps=1e-05, momentum=0.1, affine=True, track_running_stats=True)
              )
              (pointwise): Conv2d(
                2048, 256, kernel_size=(1, 1), stride=(1, 1), bias=False
                (norm): SyncBatchNorm(256, eps=1e-05, momentum=0.1, affine=True, track_running_stats=True)
              )
            )
            (4): Sequential(
              (0): AvgPool2d(kernel_size=(40, 40), stride=1, padding=0)
              (1): Conv2d(2048, 256, kernel_size=(1, 1), stride=(1, 1))
            )
          )
          (project): Conv2d(
            1280, 256, kernel_size=(1, 1), stride=(1, 1), bias=False
            (norm): SyncBatchNorm(256, eps=1e-05, momentum=0.1, affine=True, track_running_stats=True)
          )
        )
        (fuse_conv): None
      )
    )
    (head): DepthwiseSeparableConv2d(
      (depthwise): Conv2d(
        256, 256, kernel_size=(5, 5), stride=(1, 1), padding=(2, 2), groups=256, bias=False
        (norm): SyncBatchNorm(256, eps=1e-05, momentum=0.1, affine=True, track_running_stats=True)
      )
      (pointwise): Conv2d(
        256, 256, kernel_size=(1, 1), stride=(1, 1), bias=False
        (norm): SyncBatchNorm(256, eps=1e-05, momentum=0.1, affine=True, track_running_stats=True)
      )
    )
    (predictor): Conv2d(256, 133, kernel_size=(1, 1), stride=(1, 1))
    (avg_pool): AdaptiveAvgPool2d(output_size=(1, 1))
    (fc): Linear(in_features=256, out_features=56, bias=True)
    (relation_loss): BCEWithLogitsLoss()
    (loss): DeepLabCE(
      (criterion): CrossEntropyLoss()
    )
  )
  (ins_embed_head): PanopticDeepLabInsEmbedHead(
    (decoder): ModuleDict(
      (res2): ModuleDict(
        (project_conv): Conv2d(
          256, 32, kernel_size=(1, 1), stride=(1, 1), bias=False
          (norm): SyncBatchNorm(32, eps=1e-05, momentum=0.1, affine=True, track_running_stats=True)
        )
        (fuse_conv): DepthwiseSeparableConv2d(
          (depthwise): Conv2d(
            160, 160, kernel_size=(5, 5), stride=(1, 1), padding=(2, 2), groups=160, bias=False
            (norm): SyncBatchNorm(160, eps=1e-05, momentum=0.1, affine=True, track_running_stats=True)
          )
          (pointwise): Conv2d(
            160, 128, kernel_size=(1, 1), stride=(1, 1), bias=False
            (norm): SyncBatchNorm(128, eps=1e-05, momentum=0.1, affine=True, track_running_stats=True)
          )
        )
      )
      (res3): ModuleDict(
        (project_conv): Conv2d(
          512, 64, kernel_size=(1, 1), stride=(1, 1), bias=False
          (norm): SyncBatchNorm(64, eps=1e-05, momentum=0.1, affine=True, track_running_stats=True)
        )
        (fuse_conv): DepthwiseSeparableConv2d(
          (depthwise): Conv2d(
            320, 320, kernel_size=(5, 5), stride=(1, 1), padding=(2, 2), groups=320, bias=False
            (norm): SyncBatchNorm(320, eps=1e-05, momentum=0.1, affine=True, track_running_stats=True)
          )
          (pointwise): Conv2d(
            320, 128, kernel_size=(1, 1), stride=(1, 1), bias=False
            (norm): SyncBatchNorm(128, eps=1e-05, momentum=0.1, affine=True, track_running_stats=True)
          )
        )
      )
      (res5): ModuleDict(
        (project_conv): ASPP(
          (convs): ModuleList(
            (0): Conv2d(
              2048, 256, kernel_size=(1, 1), stride=(1, 1), bias=False
              (norm): SyncBatchNorm(256, eps=1e-05, momentum=0.1, affine=True, track_running_stats=True)
            )
            (1): DepthwiseSeparableConv2d(
              (depthwise): Conv2d(
                2048, 2048, kernel_size=(3, 3), stride=(1, 1), padding=(6, 6), dilation=(6, 6), groups=2048, bias=False
                (norm): SyncBatchNorm(2048, eps=1e-05, momentum=0.1, affine=True, track_running_stats=True)
              )
              (pointwise): Conv2d(
                2048, 256, kernel_size=(1, 1), stride=(1, 1), bias=False
                (norm): SyncBatchNorm(256, eps=1e-05, momentum=0.1, affine=True, track_running_stats=True)
              )
            )
            (2): DepthwiseSeparableConv2d(
              (depthwise): Conv2d(
                2048, 2048, kernel_size=(3, 3), stride=(1, 1), padding=(12, 12), dilation=(12, 12), groups=2048, bias=False
                (norm): SyncBatchNorm(2048, eps=1e-05, momentum=0.1, affine=True, track_running_stats=True)
              )
              (pointwise): Conv2d(
                2048, 256, kernel_size=(1, 1), stride=(1, 1), bias=False
                (norm): SyncBatchNorm(256, eps=1e-05, momentum=0.1, affine=True, track_running_stats=True)
              )
            )
            (3): DepthwiseSeparableConv2d(
              (depthwise): Conv2d(
                2048, 2048, kernel_size=(3, 3), stride=(1, 1), padding=(18, 18), dilation=(18, 18), groups=2048, bias=False
                (norm): SyncBatchNorm(2048, eps=1e-05, momentum=0.1, affine=True, track_running_stats=True)
              )
              (pointwise): Conv2d(
                2048, 256, kernel_size=(1, 1), stride=(1, 1), bias=False
                (norm): SyncBatchNorm(256, eps=1e-05, momentum=0.1, affine=True, track_running_stats=True)
              )
            )
            (4): Sequential(
              (0): AvgPool2d(kernel_size=(40, 40), stride=1, padding=0)
              (1): Conv2d(2048, 256, kernel_size=(1, 1), stride=(1, 1))
            )
          )
          (project): Conv2d(
            1280, 256, kernel_size=(1, 1), stride=(1, 1), bias=False
            (norm): SyncBatchNorm(256, eps=1e-05, momentum=0.1, affine=True, track_running_stats=True)
          )
        )
        (fuse_conv): None
      )
    )
    (center_head): Sequential(
      (0): Conv2d(
        128, 128, kernel_size=(3, 3), stride=(1, 1), padding=(1, 1), bias=False
        (norm): SyncBatchNorm(128, eps=1e-05, momentum=0.1, affine=True, track_running_stats=True)
      )
      (1): Conv2d(
        128, 32, kernel_size=(3, 3), stride=(1, 1), padding=(1, 1), bias=False
        (norm): SyncBatchNorm(32, eps=1e-05, momentum=0.1, affine=True, track_running_stats=True)
      )
    )
    (center_predictor): Conv2d(32, 1, kernel_size=(1, 1), stride=(1, 1))
    (offset_head): DepthwiseSeparableConv2d(
      (depthwise): Conv2d(
        128, 128, kernel_size=(5, 5), stride=(1, 1), padding=(2, 2), groups=128, bias=False
        (norm): SyncBatchNorm(128, eps=1e-05, momentum=0.1, affine=True, track_running_stats=True)
      )
      (pointwise): Conv2d(
        128, 32, kernel_size=(1, 1), stride=(1, 1), bias=False
        (norm): SyncBatchNorm(32, eps=1e-05, momentum=0.1, affine=True, track_running_stats=True)
      )
    )
    (offset_predictor): Conv2d(32, 2, kernel_size=(1, 1), stride=(1, 1))
    (center_loss): MSELoss()
    (offset_loss): L1Loss()
  )
)
[10/08 14:54:35] detectron2.projects.panoptic_deeplab.dataset_mapper INFO: Augmentations used in training: [ResizeShortestEdge(short_edge_length=(320, 384, 448, 512, 576, 640, 704, 768, 832, 896, 960), max_size=960, sample_style='choice'), RandomCrop(crop_type='absolute', crop_size=[640, 640]), RandomFlip()]
…
